…
Extracted label: neutral
Processing file: /content/drive/MyDrive/SER/dataverse_files/OAF_lot_neutral.wav
File name: OAF_lot_neutral.wav
Extracted label: neutral
Total files processed: 2400
Total labels processed: 2400
Training data shape: (1800, 40, 174)
Testing data shape: (600, 40, 174)
Training labels shape: (1800, 6)
Testing labels shape: (600, 6)
Model: "sequential_1"
_________________________________________________________________
 Layer (type)                Output Shape              Param #   
=================================================================
 conv2d_3 (Conv2D)           (None, 40, 174, 32)       320       
                                                                 
 batch_normalization_3 (Bat  (None, 40, 174, 32)       128       
 chNormalization)                                                
                                                                 
 max_pooling2d_3 (MaxPoolin  (None, 20, 87, 32)        0         
 g2D)                                                            
                                                                 
 dropout_3 (Dropout)         (None, 20, 87, 32)        0         
                                                                 
 conv2d_4 (Conv2D)           (None, 20, 87, 64)        18496     
                                                                 
 batch_normalization_4 (Bat  (None, 20, 87, 64)        256       
 chNormalization)                                                
                                                                 
 max_pooling2d_4 (MaxPoolin  (None, 10, 43, 64)        0         
 g2D)                                                            
                                                                 
 dropout_4 (Dropout)         (None, 10, 43, 64)        0         
                                                                 
 conv2d_5 (Conv2D)           (None, 10, 43, 128)       73856     
                                                                 
 batch_normalization_5 (Bat  (None, 10, 43, 128)       512       
 chNormalization)                                                
                                                                 
 max_pooling2d_5 (MaxPoolin  (None, 5, 21, 128)        0         
 g2D)                                                            
                                                                 
 dropout_5 (Dropout)         (None, 5, 21, 128)        0         
                                                                 
 time_distributed_1 (TimeDi  (None, 5, 2688)           0         
 stributed)                                                      
                                                                 
 lstm_1 (LSTM)               (None, 128)               1442304   
                                                                 
 dense_1 (Dense)             (None, 6)                 774       
                                                                 
=================================================================
Total params: 1536646 (5.86 MB)
Trainable params: 1536198 (5.86 MB)
Non-trainable params: 448 (1.75 KB)
_________________________________________________________________
Epoch 1/50
45/45 [==============================] - 39s 748ms/step - loss: 1.4317 - accuracy: 0.5118 - val_loss: 1.3285 - val_accuracy: 0.2917 - lr: 1.0000e-04
…
